…
_DIR, exist_ok=True)\n","trainer = DefaultTrainer(cfg)\n","trainer.resume_or_load(resume=False)\n","trainer.train()"],"metadata":{"colab":{"base_uri":"https://localhost:8080/"},"id":"MnqUsY1ekDQq","executionInfo":{"status":"ok","timestamp":1690805593478,"user_tz":-180,"elapsed":169962,"user":{"displayName":"Сергей Жуков","userId":"08674552531602215998"}},"outputId":"350e6e10-a070-47b4-df55-9660b980beed"},"execution_count":null,"outputs":[{"output_type":"stream","name":"stdout","text":["[07/31 12:10:29 d2.engine.defaults]: Model:\n","GeneralizedRCNN(\n","  (backbone): FPN(\n","    (fpn_lateral2): Conv2d(256, 256, kernel_size=(1, 1), stride=(1, 1))\n","    (fpn_output2): Conv2d(256, 256, kernel_size=(3, 3), stride=(1, 1), padding=(1, 1))\n","    (fpn_lateral3): Conv2d(512, 256, kernel_size=(1, 1), stride=(1, 1))\n","    (fpn_output3): Conv2d(256, 256, kernel_size=(3, 3), stride=(1, 1), padding=(1, 1))\n","    (fpn_lateral4): Conv2d(1024, 256, kernel_size=(1, 1), stride=(1, 1))\n","    (fpn_output4): Conv2d(256, 256, kernel_size=(3, 3), stride=(1, 1), padding=(1, 1))\n","    (fpn_lateral5): Conv2d(2048, 256, kernel_size=(1, 1), stride=(1, 1))\n","    (fpn_output5): Conv2d(256, 256, kernel_size=(3, 3), stride=(1, 1), padding=(1, 1))\n","    (top_block): LastLevelMaxPool()\n","    (bottom_up): ResNet(\n","      (stem): BasicStem(\n","        (conv1): Conv2d(\n","          3, 64, kernel_size=(7, 7), stride=(2, 2), padding=(3, 3), bias=False\n","          (norm): FrozenBatchNorm2d(num_features=64, eps=1e-05)\n","        )\n","      )\n","      (res2): Sequential(\n","        (0): BottleneckBlock(\n","          (shortcut): Conv2d(\n","            64, 256, kernel_size=(1, 1), stride=(1, 1), bias=False\n","            (norm): FrozenBatchNorm2d(num_features=256, eps=1e-05)\n","          )\n","          (conv1): Conv2d(\n","            64, 64, kernel_size=(1, 1), stride=(1, 1), bias=False\n","            (norm): FrozenBatchNorm2d(num_features=64, eps=1e-05)\n","          )\n","          (conv2): Conv2d(\n","            64, 64, kernel_size=(3, 3), stride=(1, 1), padding=(1, 1), bias=False\n","            (norm): FrozenBatchNorm2d(num_features=64, eps=1e-05)\n","          )\n","          (conv3): Conv2d(\n","            64, 256, kernel_size=(1, 1), stride=(1, 1), bias=False\n","            (norm): FrozenBatchNorm2d(num_features=256, eps=1e-05)\n","          )\n","        )\n","        (1): BottleneckBlock(\n","          (conv1): Conv2d(\n","            256, 64, kernel_size=(1, 1), stride=(1, 1), bias=False\n","            (norm): FrozenBatchNorm2d(num_features=64, eps=1e-05)\n","          )\n","          (conv2): Conv2d(\n","            64, 64, kernel_size=(3, 3), stride=(1, 1), padding=(1, 1), bias=False\n","            (norm): FrozenBatchNorm2d(num_features=64, eps=1e-05)\n","          )\n","          (conv3): Conv2d(\n","            64, 256, kernel_size=(1, 1), stride=(1, 1), bias=False\n","            (norm): FrozenBatchNorm2d(num_features=256, eps=1e-05)\n","          )\n","        )\n","        (2): BottleneckBlock(\n","          (conv1): Conv2d(\n","            256, 64, kernel_size=(1, 1), stride=(1, 1), bias=False\n","            (norm): FrozenBatchNorm2d(num_features=64, eps=1e-05)\n","          )\n","          (conv2): Conv2d(\n","            64, 64, kernel_size=(3, 3), stride=(1, 1), padding=(1, 1), bias=False\n","            (norm): FrozenBatchNorm2d(num_features=64, eps=1e-05)\n","          )\n","          (conv3): Conv2d(\n","            64, 256, kernel_size=(1, 1), stride=(1, 1), bias=False\n","            (norm): FrozenBatchNorm2d(num_features=256, eps=1e-05)\n","          )\n","        )\n","      )\n","      (res3): Sequential(\n","        (0): BottleneckBlock(\n","          (shortcut): Conv2d(\n","            256, 512, kernel_size=(1, 1), stride=(2, 2), bias=False\n","            (norm): FrozenBatchNorm2d(num_features=512, eps=1e-05)\n","          )\n","          (conv1): Conv2d(\n","            256, 128, kernel_size=(1, 1), stride=(2, 2), bias=False\n","            (norm): FrozenBatchNorm2d(num_features=128, eps=1e-05)\n","          )\n","          (conv2): Conv2d(\n","            128, 128, kernel_size=(3, 3), stride=(1, 1), padding=(1, 1), bias=False\n","            (norm): FrozenBatchNorm2d(num_features=128, eps=1e-05)\n","          )\n","          (conv3): Conv2d(\n","            128, 512, kernel_size=(1, 1), stride=(1, 1), bias=False\n","            (norm): FrozenBatchNorm2d(num_features=512, eps=1e-05)\n","          )\n","        )\n","        (1): BottleneckBlock(\n","          (conv1): Conv2d(\n","            512, 128, kernel_size=(1, 1), stride=(1, 1), bias=False\n","            (norm): FrozenBatchNorm2d(num_features=128, eps=1e-05)\n","          )\n","          (conv2): Conv2d(\n","            128, 128, kernel_size=(3, 3), stride=(1, 1), padding=(1, 1), bias=False\n","            (norm): FrozenBatchNorm2d(num_features=128, eps=1e-05)\n","          )\n","          (conv3): Conv2d(\n","            128, 512, kernel_size=(1, 1), stride=(1, 1), bias=False\n","            (norm): FrozenBatchNorm2d(num_features=512, eps=1e-05)\n","          )\n","        )\n","        (2): BottleneckBlock(\n","          (conv1): Conv2d(\n","            512, 128, kernel_size=(1, 1), stride=(1, 1), bias=False\n","            (norm): FrozenBatchNorm2d(num_features=128, eps=1e-05)\n","          )\n","          (conv2): Conv2d(\n","            128, 128, kernel_size=(3, 3), stride=(1, 1), padding=(1, 1), bias=False\n","            (norm): FrozenBatchNorm2d(num_features=128, eps=1e-05)\n","          )\n","          (conv3): Conv2d(\n","            128, 512, kernel_size=(1, 1), stride=(1, 1), bias=False\n","            (norm): FrozenBatchNorm2d(num_features=512, eps=1e-05)\n","          )\n","        )\n","        (3): BottleneckBlock(\n","          (conv1): Conv2d(\n","            512, 128, kernel_size=(1, 1), stride=(1, 1), bias=False\n","            (norm): FrozenBatchNorm2d(num_features=128, eps=1e-05)\n","          )\n","          (conv2): Conv2d(\n","            128, 128, kernel_size=(3, 3), stride=(1, 1), padding=(1, 1), bias=False\n","            (norm): FrozenBatchNorm2d(num_features=128, eps=1e-05)\n","          )\n","          (conv3): Conv2d(\n","            128, 512, kernel_size=(1, 1), stride=(1, 1), bias=False\n","            (norm): FrozenBatchNorm2d(num_features=512, eps=1e-05)\n","          )\n","        )\n","      )\n","      (res4): Sequential(\n","        (0): BottleneckBlock(\n","          (shortcut): Conv2d(\n","            512, 1024, kernel_size=(1, 1), stride=(2, 2), bias=False\n","            (norm): FrozenBatchNorm2d(num_features=1024, eps=1e-05)\n","          )\n","          (conv1): Conv2d(\n","            512, 256, kernel_size=(1, 1), stride=(2, 2), bias=False\n","            (norm): FrozenBatchNorm2d(num_features=256, eps=1e-05)\n","          )\n","          (conv2): Conv2d(\n","            256, 256, kernel_size=(3, 3), stride=(1, 1), padding=(1, 1), bias=False\n","            (norm): FrozenBatchNorm2d(num_features=256, eps=1e-05)\n","          )\n","          (conv3): Conv2d(\n","            256, 1024, kernel_size=(1, 1), stride=(1, 1), bias=False\n","            (norm): FrozenBatchNorm2d(num_features=1024, eps=1e-05)\n","          )\n","        )\n","        (1): BottleneckBlock(\n","          (conv1): Conv2d(\n","            1024, 256, kernel_size=(1, 1), stride=(1, 1), bias=False\n","            (norm): FrozenBatchNorm2d(num_features=256, eps=1e-05)\n","          )\n","          (conv2): Conv2d(\n","            256, 256, kernel_size=(3, 3), stride=(1, 1), padding=(1, 1), bias=False\n","            (norm): FrozenBatchNorm2d(num_features=256, eps=1e-05)\n","          )\n","          (conv3): Conv2d(\n","            256, 1024, kernel_size=(1, 1), stride=(1, 1), bias=False\n","            (norm): FrozenBatchNorm2d(num_features=1024, eps=1e-05)\n","          )\n","        )\n","        (2): BottleneckBlock(\n","          (conv1): Conv2d(\n","            1024, 256, kernel_size=(1, 1), stride=(1, 1), bias=False\n","            (norm): FrozenBatchNorm2d(num_features=256, eps=1e-05)\n","          )\n","          (conv2): Conv2d(\n","            256, 256, kernel_size=(3, 3), stride=(1, 1), padding=(1, 1), bias=False\n","            (norm): FrozenBatchNorm2d(num_features=256, eps=1e-05)\n","          )\n","          (conv3): Conv2d(\n","            256, 1024, kernel_size=(1, 1), stride=(1, 1), bias=False\n","            (norm): FrozenBatchNorm2d(num_features=1024, eps=1e-05)\n","          )\n","        )\n","        (3): BottleneckBlock(\n","          (conv1): Conv2d(\n","            1024, 256, kernel_size=(1, 1), stride=(1, 1), bias=False\n","            (norm): FrozenBatchNorm2d(num_features=256, eps=1e-05)\n","          )\n","          (conv2): Conv2d(\n","            256, 256, kernel_size=(3, 3), stride=(1, 1), padding=(1, 1), bias=False\n","            (norm): FrozenBatchNorm2d(num_features=256, eps=1e-05)\n","          )\n","          (conv3): Conv2d(\n","            256, 1024, kernel_size=(1, 1), stride=(1, 1), bias=False\n","            (norm): FrozenBatchNorm2d(num_features=1024, eps=1e-05)\n","          )\n","        )\n","        (4): BottleneckBlock(\n","          (conv1): Conv2d(\n","            1024, 256, kernel_size=(1, 1), stride=(1, 1), bias=False\n","            (norm): FrozenBatchNorm2d(num_features=256, eps=1e-05)\n","          )\n","          (conv2): Conv2d(\n","            256, 256, kernel_size=(3, 3), stride=(1, 1), padding=(1, 1), bias=False\n","            (norm): FrozenBatchNorm2d(num_features=256, eps=1e-05)\n","          )\n","          (conv3): Conv2d(\n","            256, 1024, kernel_size=(1, 1), stride=(1, 1), bias=False\n","            (norm): FrozenBatchNorm2d(num_features=1024, eps=1e-05)\n","          )\n","        )\n","        (5): BottleneckBlock(\n","          (conv1): Conv2d(\n","            1024, 256, kernel_size=(1, 1), stride=(1, 1), bias=False\n","            (norm): FrozenBatchNorm2d(num_features=256, eps=1e-05)\n","          )\n","          (conv2): Conv2d(\n","            256, 256, kernel_size=(3, 3), stride=(1, 1), padding=(1, 1), bias=False\n","            (norm): FrozenBatchNorm2d(num_features=256, eps=1e-05)\n","          )\n","          (conv3): Conv2d(\n","            256, 1024, kernel_size=(1, 1), stride=(1, 1), bias=False\n","            (norm): FrozenBatchNorm2d(num_features=1024, eps=1e-05)\n","          )\n","        )\n","      )\n","      (res5): Sequential(\n","        (0): BottleneckBlock(\n","          (shortcut): Conv2d(\n","            1024, 2048, kernel_size=(1, 1), stride=(2, 2), bias=False\n","            (norm): FrozenBatchNorm2d(num_features=2048, eps=1e-05)\n","          )\n","          (conv1): Conv2d(\n","            1024, 512, kernel_size=(1, 1), stride=(2, 2), bias=False\n","            (norm): FrozenBatchNorm2d(num_features=512, eps=1e-05)\n","          )\n","          (conv2): Conv2d(\n","            512, 512, kernel_size=(3, 3), stride=(1, 1), padding=(1, 1), bias=False\n","            (norm): FrozenBatchNorm2d(num_features=512, eps=1e-05)\n","          )\n","          (conv3): Conv2d(\n","            512, 2048, kernel_size=(1, 1), stride=(1, 1), bias=False\n","            (norm): FrozenBatchNorm2d(num_features=2048, eps=1e-05)\n","          )\n","        )\n","        (1): BottleneckBlock(\n","          (conv1): Conv2d(\n","            2048, 512, kernel_size=(1, 1), stride=(1, 1), bias=False\n","            (norm): FrozenBatchNorm2d(num_features=512, eps=1e-05)\n","          )\n","          (conv2): Conv2d(\n","            512, 512, kernel_size=(3, 3), stride=(1, 1), padding=(1, 1), bias=False\n","            (norm): FrozenBatchNorm2d(num_features=512, eps=1e-05)\n","          )\n","          (conv3): Conv2d(\n","            512, 2048, kernel_size=(1, 1), stride=(1, 1), bias=False\n","            (norm): FrozenBatchNorm2d(num_features=2048, eps=1e-05)\n","          )\n","        )\n","        (2): BottleneckBlock(\n","          (conv1): Conv2d(\n","            2048, 512, kernel_size=(1, 1), stride=(1, 1), bias=False\n","            (norm): FrozenBatchNorm2d(num_features=512, eps=1e-05)\n","          )\n","          (conv2): Conv2d(\n","            512, 512, kernel_size=(3, 3), stride=(1, 1), padding=(1, 1), bias=False\n","            (norm): FrozenBatchNorm2d(num_features=512, eps=1e-05)\n","          )\n","          (conv3): Conv2d(\n","            512, 2048, kernel_size=(1, 1), stride=(1, 1), bias=False\n","            (norm): FrozenBatchNorm2d(num_features=2048, eps=1e-05)\n","          )\n","        )\n","      )\n","    )\n","  )\n","  (proposal_generator): RPN(\n","    (rpn_head): StandardRPNHead(\n","      (conv): Conv2d(\n","        256, 256, kernel_size=(3, 3), stride=(1, 1), padding=(1, 1)\n","        (activation): ReLU()\n","      )\n","      (objectness_logits): Conv2d(256, 3, kernel_size=(1, 1), stride=(1, 1))\n","      (anchor_deltas): Conv2d(256, 12, kernel_size=(1, 1), stride=(1, 1))\n","    )\n","    (anchor_generator): DefaultAnchorGenerator(\n","      (cell_anchors): BufferList()\n","    )\n","  )\n","  (roi_heads): StandardROIHeads(\n","    (box_pooler): ROIPooler(\n","      (level_poolers): ModuleList(\n","        (0): ROIAlign(output_size=(7, 7), spatial_scale=0.25, sampling_ratio=0, aligned=True)\n","        (1): ROIAlign(output_size=(7, 7), spatial_scale=0.125, sampling_ratio=0, aligned=True)\n","        (2): ROIAlign(output_size=(7, 7), spatial_scale=0.0625, sampling_ratio=0, aligned=True)\n","        (3): ROIAlign(output_size=(7, 7), spatial_scale=0.03125, sampling_ratio=0, aligned=True)\n","      )\n","    )\n","    (box_head): FastRCNNConvFCHead(\n","      (flatten): Flatten(start_dim=1, end_dim=-1)\n","      (fc1): Linear(in_features=12544, out_features=1024, bias=True)\n","      (fc_relu1): ReLU()\n","      (fc2): Linear(in_features=1024, out_features=1024, bias=True)\n","      (fc_relu2): ReLU()\n","    )\n","    (box_predictor): FastRCNNOutputLayers(\n","      (cls_score): Linear(in_features=1024, out_features=3, bias=True)\n","      (bbox_pred): Linear(in_features=1024, out_features=8, bias=True)\n","    )\n","  )\n",")\n","[07/31 12:10:36 d2.data.build]: Removed 0 images with no usable annotations. 400 images left.\n","[07/31 12:10:36 d2.data.build]: Distribution of instances among all 2 categories:\n","|  category  | #instances   |  category  | #instances   |\n","|:----------:|:-------------|:----------:|:-------------|\n","|   team1    | 1378
…
